…
lene
[*] Loading shortest paths... ./data/Abilene_shortest_paths
pairs: 132, nodes: 12, links: 30
[*] Loading traffic matrices... ./data/AbileneTM2
Traffic matrices dims: [2016, 12, 12]
Input dims : (12, 12, 1)
Max moves : 13
Model: "model"
_________________________________________________________________
Layer (type)                 Output Shape              Param #   
=================================================================
input_1 (InputLayer)         [(None, 12, 12, 1)]       0         
_________________________________________________________________
conv2d (Conv2D)              (None, 12, 12, 128)       1280      
_________________________________________________________________
leaky_re_lu (LeakyReLU)      (None, 12, 12, 128)       0         
_________________________________________________________________
flatten (Flatten)            (None, 18432)             0         
_________________________________________________________________
dense (Dense)                (None, 128)               2359424   
_________________________________________________________________
leaky_re_lu_1 (LeakyReLU)    (None, 128)               0         
_________________________________________________________________
dense_1 (Dense)              (None, 132)               17028     
=================================================================
Total params: 2,377,732
Trainable params: 2,377,732
Non-trainable params: 0
_________________________________________________________________
./tf_ckpts/TE_v2-CFR-RL_pure_policy_Conv_Abilene_TM_baseline/ckpt-100
Restored from ./tf_ckpts/TE_v2-CFR-RL_pure_policy_Conv_Abilene_TM_baseline/ckpt-100 100001

step 100001, learning rate: 0.000000
…
