…
2022-01-24 22:19:44.397512: E tensorflow/stream_executor/cuda/cuda_driver.cc:1116] could not retrieve CUDA device count: CUDA_ERROR_NOT_INITIALIZED: initialization error
Model: "model"
__________________________________________________________________________________________________
Layer (type)                    Output Shape         Param #     Connected to
==================================================================================================
input_1 (InputLayer)            [(None, 12, 12, 1)]  0
__________________________________________________________________________________________________
conv2d (Conv2D)                 (None, 12, 12, 128)  1280        input_1[0][0]
__________________________________________________________________________________________________
leaky_re_lu (LeakyReLU)         (None, 12, 12, 128)  0           conv2d[0][0]
__________________________________________________________________________________________________
flatten (Flatten)               (None, 18432)        0           leaky_re_lu[0][0]
__________________________________________________________________________________________________
conv2d_1 (Conv2D)               (None, 12, 12, 128)  1280        input_1[0][0]
__________________________________________________________________________________________________
dense (Dense)                   (None, 128)          2359424     flatten[0][0]
__________________________________________________________________________________________________
leaky_re_lu_2 (LeakyReLU)       (None, 12, 12, 128)  0           conv2d_1[0][0]
__________________________________________________________________________________________________
leaky_re_lu_1 (LeakyReLU)       (None, 128)          0           dense[0][0]
__________________________________________________________________________________________________
flatten_1 (Flatten)             (None, 18432)        0           leaky_re_lu_2[0][0]
__________________________________________________________________________________________________
dense_1 (Dense)                 (None, 132)          17028       leaky_re_lu_1[0][0]
__________________________________________________________________________________________________
dense_2 (Dense)                 (None, 128)          2359424     flatten_1[0][0]
__________________________________________________________________________________________________
tf_op_layer_Tanh (TensorFlowOpL [(None, 132)]        0           dense_1[0][0]
__________________________________________________________________________________________________
leaky_re_lu_3 (LeakyReLU)       (None, 128)          0           dense_2[0][0]
__________________________________________________________________________________________________
tf_op_layer_Mul (TensorFlowOpLa [(None, 132)]        0           tf_op_layer_Tanh[0][0]
__________________________________________________________________________________________________
dense_3 (Dense)                 (None, 1)            129         leaky_re_lu_3[0][0]
==================================================================================================
Total params: 4,738,565
Trainable params: 4,738,565
Non-trainable params: 0
__________________________________________________________________________________________________
Save hyper parameters: ./tf_ckpts/TE_v2-CFR-RL_actor_critic_Conv_Abilene_TM_alpha/hyper_parameters
…
