…
2022-02-16 20:56:33.504651: E tensorflow/stream_executor/cuda/cuda_driver.cc:1116] could not retrieve CUDA device count: CUDA_ERROR_NOT_INITIALIZED: initialization error
  0%|                                      | 0/100000 [00:00<?, ?it/s]Model: "model"
_________________________________________________________________
Layer (type)                 Output Shape              Param #
=================================================================
input_1 (InputLayer)         [(None, 12, 12, 1)]       0
_________________________________________________________________
conv2d (Conv2D)              (None, 12, 12, 128)       1280
_________________________________________________________________
leaky_re_lu (LeakyReLU)      (None, 12, 12, 128)       0
_________________________________________________________________
flatten (Flatten)            (None, 18432)             0
_________________________________________________________________
dense (Dense)                (None, 128)               2359424
_________________________________________________________________
leaky_re_lu_1 (LeakyReLU)    (None, 128)               0
_________________________________________________________________
dense_1 (Dense)              (None, 132)               17028
=================================================================
Total params: 2,377,732
Trainable params: 2,377,732
Non-trainable params: 0
_________________________________________________________________
Initializing from scratch.
  1%|▏                       | 1000/100000 [10:26<17:31:58,  1.57it/s]Saved checkpoint for step 1001: ./tf_ckpts/TE_v2-CFR-RL_pure_policy_Conv_Abilene_TM_alpha+/ckpt-1
…
